…
I0719 01:49:32.996305  5080 net.cpp:294] The NetState phase (0) differed from the phase (1) specified by a rule in layer cifar
I0719 01:49:32.996481  5080 net.cpp:51] Initializing net from parameters: 
name: "CIFAR10_full"
state {
  phase: TRAIN
  level: 0
  stage: ""
}
layer {
  name: "cifar"
  type: "Data"
  top: "data"
  top: "label"
  include {
    phase: TRAIN
  }
  transform_param {
    mirror: true
    crop_size: 60
    mean_file: "examples/snsd_classify/snsd_mean.binaryproto"
  }
  data_param {
    source: "examples/snsd_classify/snsd_cifar10_train_lmdb"
    batch_size: 100
    backend: LMDB
  }
}
layer {
  name: "conv1"
  type: "Convolution"
  bottom: "data"
  top: "conv1"
  param {
    lr_mult: 1
  }
  param {
    lr_mult: 2
  }
  convolution_param {
    num_output: 60
    pad: 2
    kernel_size: 5
    stride: 1
    weight_filler {
      type: "gaussian"
      std: 0.0001
    }
    bias_filler {
      type: "constant"
    }
  }
}
layer {
  name: "pool1"
  type: "Pooling"
  bottom: "conv1"
  top: "pool1"
  pooling_param {
    pool: MAX
    kernel_size: 3
    stride: 2
  }
}
layer {
  name: "relu1"
  type: "ReLU"
  bottom: "pool1"
  top: "pool1"
}
layer {
  name: "norm1"
  type: "LRN"
  bottom: "pool1"
  top: "norm1"
  lrn_param {
    local_size: 3
    alpha: 5e-05
    beta: 0.75
    norm_region: WITHIN_CHANNEL
  }
}
layer {
  name: "conv2"
  type: "Convolution"
  bottom: "norm1"
  top: "conv2"
  param {
    lr_mult: 1
  }
  param {
    lr_mult: 2
  }
  convolution_param {
    num_output: 32
    pad: 2
    kernel_size: 5
    stride: 1
    weight_filler {
      type: "gaussian"
      std: 0.01
    }
    bias_filler {
      type: "constant"
    }
  }
}
layer {
  name: "relu2"
  type: "ReLU"
  bottom: "conv2"
  top: "conv2"
}
layer {
  name: "pool2"
  type: "Pooling"
  bottom: "conv2"
  top: "pool2"
  pooling_param {
    pool: AVE
    kernel_size: 3
    stride: 2
  }
}
layer {
  name: "norm2"
  type: "LRN"
  bottom: "pool2"
  top: "norm2"
  lrn_param {
    local_size: 3
    alpha: 5e-05
    beta: 0.75
    norm_region: WITHIN_CHANNEL
  }
}
layer {
  name: "conv3"
  type: "Convolution"
  bottom: "norm2"
  top: "conv3"
  convolution_param {
    num_output: 64
    pad: 2
    kernel_size: 5
    stride: 1
    weight_filler {
      type: "gaussian"
      std: 0.01
    }
    bias_filler {
      type: "constant"
    }
  }
}
layer {
  name: "relu3"
  type: "ReLU"
  bottom: "conv3"
  top: "conv3"
}
layer {
  name: "pool3"
  type: "Pooling"
  bottom: "conv3"
  top: "pool3"
  pooling_param {
    pool: AVE
    kernel_size: 3
    stride: 2
  }
}
layer {
  name: "ip1"
  type: "InnerProduct"
  bottom: "pool3"
  top: "ip1"
  param {
    lr_mult: 1
  }
  param {
    lr_mult: 2
  }
  inner_product_param {
    num_output: 64
    weight_filler {
      type: "gaussian"
      std: 0.1
    }
    bias_filler {
      type: "constant"
    }
  }
}
layer {
  name: "drop1"
  type: "Dropout"
  bottom: "ip1"
  top: "drop1"
  dropout_param {
    dropout_ratio: 0.5
  }
}
layer {
  name: "ip2"
  type: "InnerProduct"
  bottom: "drop1"
  top: "ip2"
  param {
    lr_mult: 1
    decay_mult: 250
  }
  param {
    lr_mult: 2
    decay_mult: 0
  }
  inner_product_param {
    num_output: 2
    weight_filler {
      type: "gaussian"
      std: 0.01
    }
    bias_filler {
      type: "constant"
    }
  }
}
layer {
  name: "accuracy"
  type: "Accuracy"
  bottom: "ip2"
  bottom: "label"
  top: "accuracy"
}
layer {
  name: "loss"
  type: "SoftmaxWithLoss"
  bottom: "ip2"
  bottom: "label"
  top: "loss"
}
I0719 01:49:32.996611  5080 layer_factory.hpp:77] Creating layer cifar
I0719 01:49:32.996726  5080 db_lmdb.cpp:35] Opened lmdb examples/snsd_classify/snsd_cifar10_train_lmdb
I0719 01:49:32.996754  5080 net.cpp:84] Creating Layer cifar
I0719 01:49:32.996767  5080 net.cpp:380] cifar -> data
I0719 01:49:32.996790  5080 net.cpp:380] cifar -> label
I0719 01:49:32.996807  5080 data_transformer.cpp:25] Loading mean file from: examples/snsd_classify/snsd_mean.binaryproto
I0719 01:49:32.997444  5080 data_layer.cpp:45] output data size: 100,3,60,60
I0719 01:49:33.001771  5080 net.cpp:122] Setting up cifar
I0719 01:49:33.001817  5080 net.cpp:129] Top shape: 100 3 60 60 (1080000)
I0719 01:49:33.001828  5080 net.cpp:129] Top shape: 100 (100)
I0719 01:49:33.001835  5080 net.cpp:137] Memory required for data: 4320400
I0719 01:49:33.001849  5080 layer_factory.hpp:77] Creating layer label_cifar_1_split
I0719 01:49:33.001868  5080 net.cpp:84] Creating Layer label_cifar_1_split
I0719 01:49:33.001878  5080 net.cpp:406] label_cifar_1_split <- label
I0719 01:49:33.001895  5080 net.cpp:380] label_cifar_1_split -> label_cifar_1_split_0
I0719 01:49:33.001911  5080 net.cpp:380] label_cifar_1_split -> label_cifar_1_split_1
I0719 01:49:33.001926  5080 net.cpp:122] Setting up label_cifar_1_split
I0719 01:49:33.001935  5080 net.cpp:129] Top shape: 100 (100)
I0719 01:49:33.001943  5080 net.cpp:129] Top shape: 100 (100)
I0719 01:49:33.001950  5080 net.cpp:137] Memory required for data: 4321200
I0719 01:49:33.001956  5080 layer_factory.hpp:77] Creating layer conv1
I0719 01:49:33.001979  5080 net.cpp:84] Creating Layer conv1
I0719 01:49:33.001989  5080 net.cpp:406] conv1 <- data
I0719 01:49:33.001999  5080 net.cpp:380] conv1 -> conv1
I0719 01:49:33.002300  5080 net.cpp:122] Setting up conv1
I0719 01:49:33.002316  5080 net.cpp:129] Top shape: 100 60 60 60 (21600000)
I0719 01:49:33.002323  5080 net.cpp:137] Memory required for data: 90721200
I0719 01:49:33.002342  5080 layer_factory.hpp:77] Creating layer pool1
I0719 01:49:33.002354  5080 net.cpp:84] Creating Layer pool1
I0719 01:49:33.002362  5080 net.cpp:406] pool1 <- conv1
I0719 01:49:33.002372  5080 net.cpp:380] pool1 -> pool1
I0719 01:49:33.002403  5080 net.cpp:122] Setting up pool1
I0719 01:49:33.002419  5080 net.cpp:129] Top shape: 100 60 30 30 (5400000)
I0719 01:49:33.002426  5080 net.cpp:137] Memory required for data: 112321200
I0719 01:49:33.002450  5080 layer_factory.hpp:77] Creating layer relu1
I0719 01:49:33.002472  5080 net.cpp:84] Creating Layer relu1
I0719 01:49:33.002482  5080 net.cpp:406] relu1 <- pool1
I0719 01:49:33.002492  5080 net.cpp:367] relu1 -> pool1 (in-place)
I0719 01:49:33.002503  5080 net.cpp:122] Setting up relu1
I0719 01:49:33.002522  5080 net.cpp:129] Top shape: 100 60 30 30 (5400000)
I0719 01:49:33.002532  5080 net.cpp:137] Memory required for data: 133921200
I0719 01:49:33.002539  5080 layer_factory.hpp:77] Creating layer norm1
I0719 01:49:33.002552  5080 net.cpp:84] Creating Layer norm1
I0719 01:49:33.002574  5080 net.cpp:406] norm1 <- pool1
I0719 01:49:33.002584  5080 net.cpp:380] norm1 -> norm1
I0719 01:49:33.002634  5080 net.cpp:122] Setting up norm1
I0719 01:49:33.002648  5080 net.cpp:129] Top shape: 100 60 30 30 (5400000)
I0719 01:49:33.002655  5080 net.cpp:137] Memory required for data: 155521200
I0719 01:49:33.002662  5080 layer_factory.hpp:77] Creating layer conv2
I0719 01:49:33.002679  5080 net.cpp:84] Creating Layer conv2
I0719 01:49:33.002688  5080 net.cpp:406] conv2 <- norm1
I0719 01:49:33.002699  5080 net.cpp:380] conv2 -> conv2
I0719 01:49:33.004838  5080 net.cpp:122] Setting up conv2
I0719 01:49:33.004866  5080 net.cpp:129] Top shape: 100 32 30 30 (2880000)
I0719 01:49:33.004873  5080 net.cpp:137] Memory required for data: 167041200
I0719 01:49:33.004890  5080 layer_factory.hpp:77] Creating layer relu2
I0719 01:49:33.004905  5080 net.cpp:84] Creating Layer relu2
I0719 01:49:33.004915  5080 net.cpp:406] relu2 <- conv2
I0719 01:49:33.004925  5080 net.cpp:367] relu2 -> conv2 (in-place)
I0719 01:49:33.004936  5080 net.cpp:122] Setting up relu2
I0719 01:49:33.004945  5080 net.cpp:129] Top shape: 100 32 30 30 (2880000)
I0719 01:49:33.004978  5080 net.cpp:137] Memory required for data: 178561200
I0719 01:49:33.004987  5080 layer_factory.hpp:77] Creating layer pool2
I0719 01:49:33.004999  5080 net.cpp:84] Creating Layer pool2
I0719 01:49:33.005008  5080 net.cpp:406] pool2 <- conv2
I0719 01:49:33.005017  5080 net.cpp:380] pool2 -> pool2
I0719 01:49:33.005033  5080 net.cpp:122] Setting up pool2
I0719 01:49:33.005055  5080 net.cpp:129] Top shape: 100 32 15 15 (720000)
I0719 01:49:33.005062  5080 net.cpp:137] Memory required for data: 181441200
I0719 01:49:33.005069  5080 layer_factory.hpp:77] Creating layer norm2
I0719 01:49:33.005079  5080 net.cpp:84] Creating Layer norm2
I0719 01:49:33.005085  5080 net.cpp:406] norm2 <- pool2
I0719 01:49:33.005095  5080 net.cpp:380] norm2 -> norm2
I0719 01:49:33.005120  5080 net.cpp:122] Setting up norm2
I0719 01:49:33.005133  5080 net.cpp:129] Top shape: 100 32 15 15 (720000)
I0719 01:49:33.005139  5080 net.cpp:137] Memory required for data: 184321200
I0719 01:49:33.005146  5080 layer_factory.hpp:77] Creating layer conv3
I0719 01:49:33.005159  5080 net.cpp:84] Creating Layer conv3
I0719 01:49:33.005167  5080 net.cpp:406] conv3 <- norm2
I0719 01:49:33.005177  5080 net.cpp:380] conv3 -> conv3
I0719 01:49:33.007483  5080 net.cpp:122] Setting up conv3
I0719 01:49:33.007510  5080 net.cpp:129] Top shape: 100 64 15 15 (1440000)
I0719 01:49:33.007519  5080 net.cpp:137] Memory required for data: 190081200
I0719 01:49:33.007537  5080 layer_factory.hpp:77] Creating layer relu3
I0719 01:49:33.007550  5080 net.cpp:84] Creating Layer relu3
I0719 01:49:33.007560  5080 net.cpp:406] relu3 <- conv3
I0719 01:49:33.007570  5080 net.cpp:367] relu3 -> conv3 (in-place)
I0719 01:49:33.007582  5080 net.cpp:122] Setting up relu3
I0719 01:49:33.007591  5080 net.cpp:129] Top shape: 100 64 15 15 (1440000)
I0719 01:49:33.007597  5080 net.cpp:137] Memory required for data: 195841200
I0719 01:49:33.007604  5080 layer_factory.hpp:77] Creating layer pool3
I0719 01:49:33.007616  5080 net.cpp:84] Creating Layer pool3
I0719 01:49:33.007625  5080 net.cpp:406] pool3 <- conv3
I0719 01:49:33.007637  5080 net.cpp:380] pool3 -> pool3
I0719 01:49:33.007660  5080 net.cpp:122] Setting up pool3
I0719 01:49:33.007671  5080 net.cpp:129] Top shape: 100 64 7 7 (313600)
I0719 01:49:33.007678  5080 net.cpp:137] Memory required for data: 197095600
I0719 01:49:33.007685  5080 layer_factory.hpp:77] Creating layer ip1
I0719 01:49:33.007702  5080 net.cpp:84] Creating Layer ip1
I0719 01:49:33.007712  5080 net.cpp:406] ip1 <- pool3
I0719 01:49:33.007726  5080 net.cpp:380] ip1 -> ip1
I0719 01:49:33.017166  5080 net.cpp:122] Setting up ip1
I0719 01:49:33.017199  5080 net.cpp:129] Top shape: 100 64 (6400)
I0719 01:49:33.017210  5080 net.cpp:137] Memory required for data: 197121200
I0719 01:49:33.017225  5080 layer_factory.hpp:77] Creating layer drop1
I0719 01:49:33.017242  5080 net.cpp:84] Creating Layer drop1
I0719 01:49:33.017252  5080 net.cpp:406] drop1 <- ip1
I0719 01:49:33.017264  5080 net.cpp:380] drop1 -> drop1
I0719 01:49:33.017293  5080 net.cpp:122] Setting up drop1
I0719 01:49:33.017304  5080 net.cpp:129] Top shape: 100 64 (6400)
I0719 01:49:33.017318  5080 net.cpp:137] Memory required for data: 197146800
I0719 01:49:33.017326  5080 layer_factory.hpp:77] Creating layer ip2
I0719 01:49:33.017343  5080 net.cpp:84] Creating Layer ip2
I0719 01:49:33.017352  5080 net.cpp:406] ip2 <- drop1
I0719 01:49:33.017364  5080 net.cpp:380] ip2 -> ip2
I0719 01:49:33.017405  5080 net.cpp:122] Setting up ip2
I0719 01:49:33.017418  5080 net.cpp:129] Top shape: 100 2 (200)
I0719 01:49:33.017426  5080 net.cpp:137] Memory required for data: 197147600
I0719 01:49:33.017447  5080 layer_factory.hpp:77] Creating layer ip2_ip2_0_split
I0719 01:49:33.017462  5080 net.cpp:84] Creating Layer ip2_ip2_0_split
I0719 01:49:33.017473  5080 net.cpp:406] ip2_ip2_0_split <- ip2
I0719 01:49:33.017484  5080 net.cpp:380] ip2_ip2_0_split -> ip2_ip2_0_split_0
I0719 01:49:33.017498  5080 net.cpp:380] ip2_ip2_0_split -> ip2_ip2_0_split_1
I0719 01:49:33.017514  5080 net.cpp:122] Setting up ip2_ip2_0_split
I0719 01:49:33.017549  5080 net.cpp:129] Top shape: 100 2 (200)
I0719 01:49:33.017560  5080 net.cpp:129] Top shape: 100 2 (200)
I0719 01:49:33.017567  5080 net.cpp:137] Memory required for data: 197149200
I0719 01:49:33.017575  5080 layer_factory.hpp:77] Creating layer accuracy
I0719 01:49:33.017588  5080 net.cpp:84] Creating Layer accuracy
I0719 01:49:33.017597  5080 net.cpp:406] accuracy <- ip2_ip2_0_split_0
I0719 01:49:33.017606  5080 net.cpp:406] accuracy <- label_cifar_1_split_0
I0719 01:49:33.017621  5080 net.cpp:380] accuracy -> accuracy
…
